lightning_logs/version_8/checkpoints/epoch=2-step=2346.ckpt (torch, 484259 bytes, 12 tensors)

fc1.weight f4 [50, 784]
00000000: 0567 5bbc 4a16 f63a 97e7 473c 93c9 723c
00000010: 8e1e 513c ccbe f33c d0cf 993c 13ed 37bc
00000020: 0037 9d3c c130 cb3c cefe 1abc 97ac 113d
00000030: cd22 2fba 78ef 4e3c 341b 943d f2f7 de3c
00000040: d887 f2bc b0d7 853c 0024 903b 2770 003d
00000050: 2e47 f63c cabd c33c 5c6d 433b aec1 9c3c
00000060: b773 9a3a a1b0 e5bc 7c92 11bc 0a78 debb
00000070: 2e22 bd3b 9362 db3b 8aab 033c 87ed a5bc
00000080: 7e9f af3c b8b9 dd3b 9601 12bb c3eb fabc
00000090: 9d3a 25bd d0a7 84bd 73a9 24bc b0e3 7fbb
000000a0: ced6 84bd 05a0 eab9 476d d73d d7af 103e
000000b0: a1d4 0e3e b907 b03d 53b4 88bd ff97 0dbe
000000c0: b6ec 2fbe 970a 93bd 9ae5 65bd f3b7 003c
000000d0: 1aaa bdbc 9233 0bbd 9c8a 443c d3c2 ba3b
000000e0: 7073 0abd 2a2e 5f3c 56f7 ebbc 6a0e 5d3c
000000f0: 2623 96bd 623e aeba 0f13 87bd 4f50 52bd
00000100: 5bbf d3bc 03e6 6abb 922d 0c3d 0afa a3bc
00000110: a9aa 243d a45c a73d 9af2 e63d 0738 a83d
00000120: 36ed d43d 2244 153d badf 9cbd 8bd2 10be
00000130: 1260 61be 2305 8abe b5c4 3bbe b150 c8bd
00000140: 5dff b7bd bf03 2abd ee50 4ebb c130 3ebc
00000150: e31f e03c 2dc5 003d de37 333d a59d 2cbd
00000160: 575a 08bd ba73 28bd 3bea 98ba db53 3d3b
00000170: 0e64 433c 6707 2d3d 8eb6 3a3d c7e9 123e
00000180: 318d 3d3e 6e8f 833e 3c0d 653e 7821 453e
00000190: e1fe c33d ab75 e93c e033 5bbd a785 39be
000001a0: 2512 17be 4837 71be 68c8 4cbe 47b5 8bbe
000001b0: e565 4cbe 37e8 f7bd efc8 03bd c1c7 c7bb
000001c0: 6efb ef38 ad9c 093d 2d65 c63d 939b a83d
000001d0: 9a8b 223c 2b82 04bc de4c 663d a73e debc
000001e0: e6f5 5e3d bb1e 3e3d 97a4 cb3d 817a ed3d
000001f0: 36de 233e 2549 2f3e bd37 273e 7982 513e
00000200: 0cdd ae3d 454c 543d a71b 86bc f862 85bc
00000210: d9d6 fbbd 543e 25be c7b0 18be ff96 61be
00000220: 3841 2ebe 4c45 32be 2676 aebd f589 5fbd
00000230: 9594 e8bc 8334 bc3c d2c7 5c3d 7d49 f33d
00000240: c1c6 113c 6f6e 863d 681c d5bb 63d7 b8bc
00000250: 256e b8bc 2542 a9bc 422d 763c 28fe bdbc
00000260: 0758 7ebc 637e 81bc 9d7e 553d 4669 023e
00000270: 000c 073e 466f c33d 3884 a83d 1409 90bc
00000280: c653 c3bd e608 8ebd 2ed9 30bd 8b23 4cbe
00000290: 64b0 57be bc19 2bbe 6f47 01be e2a7 19bd
000002a0: 5c38 f6bb 4326 fc3c d290 733d be18 c83d
000002b0: b191 493d af44 113d 47ef 55bc 1b68 71bd
000002c0: 789a 1dbd 3486 60bd 9fca 06bd 30e5 b1bc
000002d0: 0169 30bd 7497 343c 3141 543d 3a52 d83d
000002e0: 821e 253e 5e37 023e 8aca b03d ca6d f9bb
000002f0: 8f69 88bd 1648 28bd 577e 05bd 961f 2ebe
00000300: ab94 54be 8d3f 85be e0ea b1bd c93d 5abd
00000310: 2efa e93b 5895 c83d 78af 52bc 9544 b63d
00000320: bac7 d23d 1736 203d 5691 723d 81fb 97bc
00000330: bf55 09bd 1c56 22bd a073 31bd 2178 a2bc
00000340: 3ad2 1abc 32c5 093d 6bf5 c03d 0dcf ad3d
00000350: 1e2d 013e cc07 e63d 108e 023e 27c9 2e3d
00000360: e07d bc3b d522 e0bc 5b78 a7bb ea96 18be
00000370: 220c b5be 900a a9be faa0 05be 16c6 cdbd
00000380: 14b1 e03b 3d7c 3f3d f237 c2ba bed2 d43d
00000390: 4a8d ef3d d06d 763d 3f39 9dbc 08d7 b0bb
000003a0: 338e bfbc 74e7 35bd 97e8 25bc d5c0 a2bd
000003b0: 8fec 72bd 007c f6bc 0365 613d 1b71 1f3e
000003c0: d60e 433e 7e49 523e 59ab ac3d 515a 873d
000003d0: 5b63 92bc f004 b0bd cd8f 2ebd 92bf 31be
000003e0: ce5a d4be e66b 98be 9cf9 a3bd 84c0 c6bb
000003f0: cf5d 02bd c934 f6bb 0f07 163d f18f af3d
-0.013391261 0.0018774953 0.012201211 0.014818567 0.012763632 0.029754065 0.01877585 -0.0112259565
0.019191265 0.024803521 -0.009460164 0.035564985 -0.0006680906 0.012630336 0.07231751 0.027217839
-0.029605791 0.0163382 0.004398823 0.031356957 0.030063238 0.02389421 0.0029819822 0.019135322
0.0011783753 -0.028038325 -0.008885022 -0.006789212 0.005771897 0.0066951006 0.008036504 -0.020254863
0.021438356 0.006766524 -0.0022278777 -0.030629998 -0.0403391 -0.0647732 -0.0100501655 -0.0039045624
-0.06486283 -0.00044751182 0.1051889 0.14129578 0.13948299 0.08595223 -0.06675019 -0.13827513
-0.17180142 -0.07179754 -0.05612717 0.007856357 -0.0231524 -0.03398473 0.011995938 0.0056994944
-0.033801496 0.013621846 -0.028804462 0.013492206 -0.07330923 -0.0013293738 -0.06595432 -0.05134612
-0.025848081 -0.0035842664 0.034223147 -0.020016689 0.040201817 0.08171967 0.11276741 0.08213811
0.10396807 0.03644193 -0.0765986 -0.14142816 -0.22009304 -0.26957044 -0.18336757 -0.09781016
-0.089842536 -0.04150748 -0.0031481343 -0.0116083035 0.027358955 0.03143804 0.04375445 -0.04214253
-0.03328928 -0.04112599 -0.0011666486 0.0028889093 0.01192571 0.042243388 0.045584254 0.14346991
0.18510891 0.25695366 0.2236833 0.19251049 0.09570099 0.028498491 -0.05351627 -0.1811739
-0.14753015 -0.23556244 -0.19998324 -0.2728674 -0.19960745 -0.12104838 -0.032174047 -0.0060968106
0.000114432405 0.033596683 0.096872665 0.082327984 0.009920979 -0.008087675 0.05622565 -0.027129484
0.054433726 0.046416026 0.099435024 0.115956314 0.16002735 0.17117746 0.16329856 0.20459928
0.08538255 0.05183055 -0.016370608 -0.016282544 -0.12296838 -0.16137058 -0.14911185 -0.22030257
-0.17017066 -0.17409247 -0.08518629 -0.054574925 -0.028391162 0.022974258 0.0539015 0.11879251
0.008897484 0.06564032 -0.0065036304 -0.022563642 -0.022513459 -0.020661423 0.015025439 -0.02319248
-0.015523917 -0.015807336 0.0521227 0.12735471 0.13188171 0.09542708 0.08228344 -0.017582454
-0.09537463 -0.06935291 -0.04317587 -0.19935434 -0.21063381 -0.16709036 -0.12624906 -0.03751362
-0.007514043 0.030779963 0.059464283 0.09770344 0.049211208 0.035465892 -0.013057536 -0.058937173
-0.03847739 -0.054815486 -0.03290808 -0.02171573 -0.04306889 0.011022437 0.051819984 0.105625585
0.16124919 0.12716433 0.08632381 -0.007611965 -0.06660759 -0.04108437 -0.03259119 -0.17004237
-0.20759837 -0.26025048 -0.08687377 -0.05328158 0.0071404194 0.0979411 -0.012859218 0.088998
0.10292001 0.039114084 0.059220634 -0.018552544 -0.03352904 -0.0396329 -0.04332316 -0.019832673
-0.009449536 0.033635326 0.0942181 0.084867574 0.12614867 0.11231956 0.12749505 0.042672303
0.00575231 -0.02736036 -0.005110783 -0.14901319 -0.3536082 -0.3301587 -0.13049689 -0.100475475
0.006857047 0.046749342 -0.0014817698 0.103917584 0.116968706 0.06016332 -0.019192336 -0.0053967275
-0.023383236 -0.044410184 -0.0101262545 -0.07946936 -0.05930763 -0.030088425 0.055027973 0.1557049
0.19048628 0.20535848 0.084311195 0.06609023 -0.017869642 -0.08594692 -0.042617608 -0.17358235
-0.41475528 -0.2976982 -0.080065936 -0.00606543 -0.031827744 -0.0075136167 0.036627825 0.085723765

fc1.bias f4 [50]
00000000: f281 0d3d 4720 f63d 3ebc 86bd 2474 ba3d
00000010: 0fe8 783e e4ed 723d 14de 613e b386 0e3e
00000020: 0ed0 693e 0616 a83d ca30 063e 6f68 0ebe
00000030: becb f13d 5803 e8bc d148 7fbb ee62 18bd
00000040: 69b8 cfbb be9f 453e b188 a83b 1469 70be
00000050: 5880 223d db27 b53d 5bd3 41be 618c 4e3d
00000060: db14 14be 586c 273e 739d bdbc f70b bdbc
00000070: 496b a63e 14b8 e23a 6ed1 5f3d 0c96 a33b
00000080: 7914 cabd 9125 303d be06 a43b 0aa0 fabc
00000090: fc15 903e eb5d 143e 8514 dc3d 925a 24bc
000000a0: 0076 813c 9ffe 0f3e d3b8 b63d fd15 1e3e
000000b0: 85bc 2fbd a3b8 fe3d 9c0e 30be 0703 b9bd
000000c0: 88fc 0ebd d151 233d
0.034547754 0.12017875 -0.06578873 0.09104183 0.24307273 0.0593089 0.22057372 0.13918571
0.22833273 0.08207326 0.13104549 -0.13907026 0.11806439 -0.028321907 -0.0038953314 -0.03720372
-0.006339122 0.19299218 0.005143248 -0.23477584 0.03967318 0.088454925 -0.18928282 0.050426845
-0.1446108 0.16349924 -0.023146367 -0.023076994 0.32503727 0.0017297291 0.054643087 0.004992252
-0.09867186 0.043004576 0.0050056865 -0.03059389 0.28141773 0.14488952 0.10746101 -0.010031359
0.015803337 0.14061974 0.08921971 0.15438075 -0.042904396 0.124375604 -0.17193073 -0.090337805
-0.0349088 0.039872948

fc2.weight f4 [10, 50]
00000000: 8a66 10bd 83e8 0cbd 914e a53e d43f c3be
00000010: 3012 063e 32b7 5cbe 07cf 1c3d 9c50 7ebe
00000020: e613 853d 1e04 133e 1b24 8dbe b0bc 353e
00000030: a719 c2bc cfe6 223c f0e3 653e 9b5c 8fbe
00000040: 7edd d93d 1a5d 81be 7963 693d 8c0f 30be
00000050: 9769 8abe 1c27 85bc ab08 313d 9a4f ed3d
00000060: bf1a 0b3d 92a5 603e fd29 a9bd cc94 973e
00000070: d970 50be fe7d 203e f402 4b3e eefa 223e
00000080: 2daf a5be be99 d53c f734 a5bc 2c33 5ebe
00000090: 69f4 61bd 53c5 3c3c 7d1f cebd f3be 123e
000000a0: 7a9c a5bd bfa1 d0be bcb6 93be 3bff d5be
000000b0: 5a72 5abd 3a42 3dbe 7486 413e 635a 0ebe
000000c0: cc5d 88be 0be5 f73c 0c66 5f3e 0783 8ebe
000000d0: 3a6e a7bd d3a6 903e 4b40 1c3e 9757 3c3e
000000e0: 9d03 bcbd 2f6e 033e f29e e03d 689b 77be
000000f0: d390 713e b347 87be f9b6 423e 37d7 fc3d
00000100: 0e16 c7be e556 31be f972 653e 9474 aebd
00000110: c022 d23d ba5c 6dbe 0beb 633e cced 3abe
00000120: da00 863d 3072 2bbe ad87 28be 6d81 efbd
00000130: c1d7 14bc 37b2 5c3e fcc8 833d 8ec5 943d
00000140: 3f06 0a3f d77e 8ebe bb76 283e ea85 26be
00000150: a8c8 b6bd 91c1 d1be 991d 6d3e 6fc8 b7be
00000160: 0982 73be efa1 c0be ca24 05be 3eaf 2d3e
00000170: 4bf7 ab3d 014c 143e fc2b 443e c70d 37be
00000180: 7a1f c4be a469 093e 6269 2bbe 01f3 20bd
00000190: be04 723e 11d1 93be bd17 4a3e 0bf0 41be
000001a0: bbee 14bd 9887 2ebf cc3f 893e e534 843d
000001b0: 4486 4ebf 8f1c 6d3e a68a f23d 0c0e 673e
000001c0: 3f45 bd3d 97a9 f03c 4e3a 15be 6052 473e
000001d0: 3574 233c ea13 debd 680f f7bd e255 e73d
000001e0: 0805 523e b3a7 8cbe ab48 75be ebd1 c03d
000001f0: 11c5 45be c9a0 50be df3c 723e f17b b83c
00000200: a767 1bbe e92b d63d 6207 1bbe 885f cebd
00000210: a364 db3d dac1 f93d d906 d8bd 8b66 82be
00000220: 7713 463e 48c0 f43d be0f 183e 6ee8 bdbd
00000230: 1451 19bd 0eb7 febc e073 b5bc e189 203e
00000240: 2423 5a3e a865 273d 7957 8bbd c796 42be
00000250: 32e9 72be d46d b33e 8856 873e c3d7 56be
00000260: 62a9 84be 4995 2ebe d972 d6be fc7b fb3d
00000270: f96e 58be 0e0c f5bd 79d2 94be ce60 5e3e
00000280: ca4f e33d 01ea 16be 4355 ee3d 36d5 46bd
00000290: b388 48bd 433f 2f3e 0b56 d2be 36e6 ac3d
000002a0: ce65 acbd 6170 633e 2fad 87be 2bfe 383e
000002b0: 2cf2 be3d c28c b33d f945 413e 736f 4e3e
000002c0: 3171 53be 3262 a0be 68c8 c6be d75f 563e
000002d0: abda bf3e 3073 6dbe 6dc7 863e 907a 983d
000002e0: f001 c0bd a5b1 cc3a 6b07 dfbd abc9 81be
000002f0: b3d7 1cbe b062 64be a35f af3d 961f 843d
00000300: 2b3e 42be ebb0 aebd 0cb2 1a3e 2d1b 24be
00000310: aab0 643e 264e f3bd 1d8f 683d 1319 063f
00000320: 6221 333d bce7 053e 7679 72bd 4a74 0d3e
00000330: d847 f93d c792 c53e 793f 4abd 4a40 8b3e
00000340: 4f16 8abe fd7b f8be a6ff 4b3d f6cd fcbd
00000350: 4a68 d5be c247 493c 1d4e 3dbd 91d0 853d
00000360: d2d1 cebd 02f9 a23e 75e3 0dbe b5c2 49bd
00000370: 0b2e 003d 5ec8 0a3e f4d9 bfbc 617c f3be
00000380: 4acd 6abd 4616 103e a916 57be 7071 393e
00000390: 93a8 4e3e 961c 0abf aa77 74bd e919 183e
000003a0: c2c3 8dbe 7922 763e 9e0e 883d c6e6 2b3e
000003b0: 73e9 fabe bb19 623d e3fb 263e 0e61 413e
000003c0: c142 653d 43db 5f3d 6e94 1fbe 448e f9bd
000003d0: ca57 62bd c730 763e 0bff 44be d3c5 91be
000003e0: a807 f0bd 0787 fcbe b4f8 8ebe 8dac 0f3e
000003f0: e5f4 dcbe 3435 21bd 3bc3 923e 7131 adbe
-0.03525404 -0.034401428 0.32286504 -0.38134634 0.13092875 -0.21554258 0.038283374 -0.24835438
0.06497936 0.1435704 -0.2756661 0.1774776 -0.023693873 0.009942724 0.22450233 -0.2800034
0.106379494 -0.25266343 0.05697963 -0.1719343 -0.27033684 -0.016254 0.043221157 0.115874484
0.033961054 0.2193816 -0.08259962 0.2960571 -0.20355548 0.15673062 0.19825345 0.15916035
-0.3236021 0.026074287 -0.020166857 -0.21699208 -0.05516473 0.011521655 -0.100646 0.14330654
-0.08086486 -0.40748402 -0.28850353 -0.41796288 -0.05333171 -0.18482295 0.18898946 -0.13901667
-0.2663406 0.030260583 0.21816272 -0.2783434 -0.08175321 0.28252277 0.15258901 0.18392788
-0.09180377 0.12835 0.109678164 -0.24180377 0.23590402 -0.2642189 0.19015111 0.123457365
-0.38884014 -0.17318304 0.2240714 -0.08518329 0.10260534 -0.23179904 0.2225763 -0.18254775
0.06543131 -0.16742778 -0.16458006 -0.11694608 -0.009084643 0.21552359 0.06434819 0.07264243
0.5391578 -0.27831146 0.16451542 -0.16262022 -0.08924991 -0.40967992 0.23155822 -0.35895106
-0.23780073 -0.37623546 -0.13002315 0.16961381 0.08396777 0.14482118 0.19157404 -0.1787635
-0.38305265 0.13419205 -0.16739419 -0.039294247 0.23634622 -0.28870443 0.19735618 -0.18939225
-0.036360484 -0.6817565 0.26806486 0.06455401 -0.80673623 0.23155425 0.11842851 0.22563952
0.09241723 0.029377742 -0.14573023 0.19465017 0.009976436 -0.10843642 -0.120634854 0.11295678
0.20509732 -0.27471694 -0.23953502 0.09415039 -0.19313456 -0.20373835 0.23656033 0.022520037
-0.15176259 0.10457594 -0.15139535 -0.10076815 0.10712554 0.121951774 -0.10548181 -0.2546886
0.19343363 0.11950737 0.14849755 -0.09272848 -0.037430838 -0.031093147 -0.02214998 0.15677597
0.21302468 0.04086843 -0.068037935 -0.1900283 -0.2372177 0.3504473 0.26433206 -0.20980744
-0.2591048 -0.17049135 -0.41884497 0.122795075 -0.21136083 -0.1196519 -0.29066828 0.21716616
0.11099203 -0.14737703 0.11637356 -0.048543178 -0.04895849 0.17113976 -0.4108127 0.08442347
-0.08417855 0.22210838 -0.26499316 0.18065707 0.09323534 0.08767082 0.18874349 0.20159702
-0.20648648 -0.31324917 -0.38824773 0.20934997 0.37471518 -0.23188472 0.26324025 0.07445252
-0.093753695 0.0015616907 -0.10890087 -0.25349173 -0.15316658 -0.22303271 0.08563163 0.06451337
-0.18969028 -0.08529838 0.15106982 -0.16025992 0.22333017 -0.1188014 0.05677711 0.5238201
0.04373301 0.13076681 -0.059197865 0.13813892 0.12171906 0.38588545 -0.04937694 0.27197486
-0.26970145 -0.48532096 0.049804352 -0.123439714 -0.4168113 0.012285175 -0.046217073 0.065339215
-0.10098614 0.31830603 -0.13856299 -0.049257953 0.03129391 0.13552997 -0.023419358 -0.4755583
-0.057324685 0.14070997 -0.21004738 0.18109679 0.20181493 -0.5394987 -0.059684433 0.14853634
-0.27688414 0.24036588 0.06643413 0.16787252 -0.49006233 0.05520032 0.16307025 0.1888468
0.055971865 0.054652464 -0.15583965 -0.12185338 -0.055259503 0.24042045 -0.19237916 -0.2847124
-0.1172021 -0.49321768 -0.2792412 0.14030667 -0.4315559 -0.03935738 0.28664574 -0.33826783

fc2.bias f4 [10]
00000000: ef85 15be 5440 c8bc 6b96 d23d 11b8 0d3d
00000010: d21b 96bd 9aec 573e e7f3 07be 996c 313c
00000020: 7082 17be 41de 383d
-0.14601873 -0.024444737 0.10282596 0.034599368 -0.07329525 0.2108635 -0.13276635 0.010829114
-0.14795852 0.045133833

exp_avg f4 [50, 784]
00000000: 0000 0000 0000 0000 0000 0000 0000 0000
00000010: 0000 0000 0000 0000 0000 0000 0000 0000
00000020: 0000 0000 0000 0000 0000 0000 0000 0000
00000030: 5450 2e08 628e bd08 4d60 3785 6880 f482
00000040: 0000 0000 0000 0000 0000 0000 0000 0000
00000050: 0000 0000 0000 0000 0000 0000 0000 0000
00000060: 0000 0000 0000 0000 0000 0000 0000 0000
00000070: 0000 0000 0000 0000 0000 0000 0000 0000
00000080: 0000 0000 0000 0000 d93e 281b 6578 f0af
00000090: 8bdb b6b2 d886 8db2 f8c4 09b2 68d4 d2a1
000000a0: f931 1d31 72a6 64af 29e7 03af c912 efb3
000000b0: a0a4 64b5 caaa 23b5 f460 d332 877e 8035
000000c0: d56a 2835 98b7 5230 41d1 050e 0000 0000
000000d0: 0000 0000 0000 0000 0000 0000 0000 0000
000000e0: 0000 0000 0000 0000 63d3 1502 0000 0000
000000f0: 4733 5313 894f 5b19 fd76 4da7 4c55 11b2
00000100: 25c7 1eb3 45fb 6ab3 1d56 fd35 4693 8535
00000110: badd 70b5 6ee3 9834 19a0 a535 fe48 5bb3
00000120: 086d a7b7 c0c3 e8b7 4f72 8636 0d5b 42b7
00000130: 29dc b134 c613 ca35 ed74 d133 82e1 5c31
00000140: 9b29 e230 7e6c fe2e 0000 0000 0000 0000
00000150: 0000 0000 0000 0000 3bec 3fa9 a8a8 dea1
00000160: c395 8ca1 8a3c 4135 4653 b530 aab5 bc31
00000170: 3371 12b4 8e60 61b4 5822 2736 18a9 b736
00000180: 102e f6b7 5f99 43b8 e4d3 59b8 000c 83b9
00000190: 0c92 68b9 688b e6b8 9560 a8b7 28ba 1cb8
000001a0: 3c3c 80b8 03a3 c0b7 3789 1236 78b2 8c32
000001b0: d76d e231 d6ce a830 0000 0000 0000 0000
000001c0: 0000 0000 8800 4ea4 bed8 7f2f 98c3 b2af
000001d0: 540e e832 e6ab b936 fe7e a6b4 fb6d 22b7
000001e0: 7342 48b7 f9e7 9e35 4f03 aa38 e716 c138
000001f0: 5802 68b8 d2f0 c9b8 786b 1ab9 a21b 18ba
00000200: ccee 03ba 8065 c5b9 346a 83b9 e827 fe38
00000210: 04c6 eb38 6148 0238 2c60 f8b7 8242 84b7
00000220: a8e0 f6b5 6f36 5730 1494 2403 1494 2403
00000230: 0000 0000 0000 0000 0d07 9a34 9073 00b4
00000240: e2b1 2bb5 487f ad36 e1b0 07b7 f0b6 11b8
00000250: ae1e 26b8 860d d036 7a80 7f38 dee9 ea38
00000260: 421f b638 f075 b239 b0de deb6 7571 75b9
00000270: c719 f5b9 663d e7b9 ecbf f5b9 1780 b7b9
00000280: ee59 30b8 de9c dab7 4cff d3b8 2526 f2b7
00000290: 7299 47b7 e748 24b7 07fb fa31 cdf2 7203
000002a0: 0000 0000 859f 14ab 5ced 38af ff0b a1b5
000002b0: a38a 86b6 b5c1 ceb7 eaf8 9db8 c7ed bcb8
000002c0: b5e4 d537 0c92 2539 dc68 57b9 68c0 a2b9
000002d0: c31b 97b9 af9a 30b9 9e06 38b8 44f0 8437
000002e0: ee45 bab9 37bc 69b9 4e43 48ba f5e2 8aba
000002f0: e440 4fba 747e 45b9 850c 0bb9 1937 2bb8
00000300: 6034 a6b7 0000 b6b6 e359 d32f 7ca8 1802
00000310: 0000 0000 749a f7ac d8e5 deb0 fc31 59b5
00000320: a6f0 86b5 ddbd 56b7 2465 9bb8 ac9e 5db8
00000330: f342 07b8 2063 c7b9 c55b 5aba a49c 68ba
00000340: a840 d2b9 c778 aa38 690f 03b9 85db 82b9
00000350: 54ca 9cb9 320a 9db9 422c 05ba 222f 36ba
00000360: f178 86ba 4d93 01ba b990 30b9 89fa dcb7
00000370: 441c ea36 ada1 1a34 1ef9 89a7 0aba 1602
00000380: ea54 1a82 df5d 9f2b 1aba 70b0 0b95 1ab4
00000390: 39ff 6137 aca3 b437 43a0 18b6 2149 9c38
000003a0: 954f 0938 9d43 68ba 15ff 76ba bb3d e9b9
000003b0: 202a fa39 5186 3a3a 04b5 c239 1eda b8b7
000003c0: c25d 84b9 46f4 7839 86d5 033a f868 08b8
000003d0: 50e2 1fba d23c f4b9 d5f1 37b9 2e33 b4b7
000003e0: abd3 bf37 25fd c933 b625 752e 3482 1702
000003f0: 0000 0000 b1f9 e2a6 1236 62b1 e15d 97b5
0.0 0.0 0.0 0.0 0.0 0.0 0.0 0.0
0.0 0.0 0.0 0.0 5.2455646e-34 1.1408498e-33 -8.622306e-36 -3.592628e-37
0.0 0.0 0.0 0.0 0.0 0.0 0.0 0.0
0.0 0.0 0.0 0.0 0.0 0.0 0.0 0.0
0.0 0.0 1.3916941e-22 -4.374129e-10 -2.1287425e-08 -1.647588e-08 -8.019235e-09 -1.4286377e-18
2.2874913e-09 -2.0795612e-10 -1.1996505e-10 -1.1132722e-07 -8.517618e-07 -6.097076e-07 2.4607722e-08 9.573567e-07
6.274034e-07 7.665846e-10 1.6494268e-30 0.0 0.0 0.0 0.0 0.0
0.0 0.0 1.1007456e-37 0.0 2.6657226e-27 1.1338097e-23 -2.8513969e-15 -8.459505e-09
-3.6968363e-08 -5.47109e-08 1.8875031e-06 9.952134e-07 -8.972962e-07 2.8477683e-07 1.2340053e-06 -5.1056297e-08
-1.9958723e-05 -2.7747708e-05 4.0068185e-06 -1.15845005e-05 3.3129007e-07 1.5055928e-06 9.7535896e-08 3.21424e-09
1.6455489e-09 1.1569855e-10 0.0 0.0 0.0 0.0 -4.2615417e-14 -1.5087948e-18
-9.526411e-19 7.19862e-07 1.3193151e-09 5.492173e-09 -1.3638491e-07 -2.0989884e-07 2.490493e-06 5.47351e-06
-2.9346935e-05 -4.663446e-05 -5.193417e-05 -0.00024995208 -0.00022179651 -0.00010993221 -2.0072135e-05 -3.736667e-05
-6.114735e-05 -2.2964092e-05 2.1835565e-06 1.6379303e-08 6.589953e-09 1.2282395e-09 0.0 0.0
0.0 -4.466958e-17 2.3269117e-10 -3.251699e-10 2.701487e-08 5.5334413e-06 -3.1012308e-07 -9.681559e-06
-1.19364e-05 1.183943e-06 8.106848e-05 9.207223e-05 -5.5315293e-05 -9.629283e-05 -0.0001472662 -0.00058024575
-0.0005032837 -0.00037650391 -0.00025065395 0.00012119097 0.000112425565 3.1061823e-05 -2.9608687e-05 -1.5766596e-05
-1.8393812e-06 7.82939e-10 4.8365254e-37 4.8365254e-37 0.0 0.0 2.8689865e-07 -1.196297e-07
-6.396132e-07 5.1706193e-06 -8.08781e-06 -3.4741068e-05 -3.9606057e-05 6.2004574e-06 6.091639e-05 0.00011201551
8.6842585e-05 0.00034038676 -6.64204e-06 -0.00023407287 -0.00046749247 -0.000441055 -0.00046873034 -0.00034999914
-4.2045423e-05 -2.6060672e-05 -0.00010108817 -2.886641e-05 -1.1897051e-05 -9.792136e-06 7.304496e-09 7.139613e-37
0.0 -5.280154e-13 -1.681903e-10 -1.1998926e-06 -4.0096506e-06 -2.4647316e-05 -7.532707e-05 -9.008828e-05
2.5498079e-05 0.00015790033 -0.00020543061 -0.00031042402 -0.00028821648 -0.00016842292 -4.387518e-05 1.5847509e-05
-0.00035528786 -0.00022290727 -0.0007639424 -0.0010596203 -0.0007906093 -0.00018834491 -0.00013260737 -4.082089e-05
-1.9813131e-05 -5.4240227e-06 3.8444545e-10 1.1215549e-37 0.0 -7.03731e-12 -1.6217951e-09 -8.0911536e-07
-1.0053816e-06 -1.27996e-05 -7.409815e-05 -5.283828e-05 -3.224886e-05 -0.00038030092 -0.0008329715 -0.0008873439
-0.00040102494 8.128728e-05 -0.00012498874 -0.00024959087 -0.00029905385 -0.0002995297 -0.00050801423 -0.00069497724
-0.0010259432 -0.0004942909 -0.00016838581 -2.6342708e-05 6.977034e-06 1.4401185e-07 -3.829523e-15 1.107365e-37
-1.1338502e-37 1.1323684e-12 -8.757596e-10 -1.4396589e-07 1.3470469e-05 2.1533888e-05 -2.274305e-06 7.452281e-05
3.2737462e-05 -0.0008860173 -0.00094221655 -0.00044487216 0.000477151 0.00071153516 0.0003713743 -2.2036078e-05
-0.00025246857 0.00023742122 0.0005029071 -3.2522687e-05 -0.0006099092 -0.0004658462 -0.0001754233 -2.1481505e-05
2.286754e-05 9.4058386e-08 5.5740045e-11 1.1131094e-37 0.0 -1.5749579e-15 -3.2918064e-09 -1.1277699e-06

exp_avg_sq f4 [50, 784]
00000000: 0000 0000 0000 0000 0000 0000 0000 0000
00000010: 0000 0000 0000 0000 0000 0000 0000 0000
00000020: 0000 0000 0000 0000 0000 0000 0000 0000
00000030: 0e1e 6c2e 93a5 8d2f 05b4 8c2a 6723 fa25
00000040: 0000 0000 0000 0000 0000 0000 0000 0000
00000050: 0000 0000 0000 0000 0000 0000 0000 0000
00000060: 0000 0000 0000 0000 0000 0000 0000 0000
00000070: 0000 0000 0000 0000 0000 0000 0000 0000
00000080: 0000 0000 0000 0000 0d8e 4928 b9cb 382c
00000090: f914 162f b6f3 cf2f 4508 092f f548 a82f
000000a0: c9b3 d231 ee74 8130 9012 c131 7e15 4a32
000000b0: e801 0d33 84ff 0a32 78d4 fd2f 1d34 cd31
000000c0: f30d 6d31 0d43 a12e 4849 a82a 0000 0000
000000d0: 0000 0000 0000 0000 0000 0000 0000 0000
000000e0: 0000 0000 0000 0000 884a a228 0000 0000
000000f0: 641a bf2d fac3 a028 8eb9 342e 3c57 4230
00000100: 3229 b431 19a3 1a33 8171 9c33 2b2b 7b33
00000110: 3633 f233 27e9 4434 cd07 1034 6355 a334
00000120: de42 9d34 116b 9f34 901a a934 c6b1 6133
00000130: 1627 0132 27d8 9a31 5881 bb30 62a7 2730
00000140: 325a ff2e 8d3c 482b 0000 0000 0000 0000
00000150: 0000 0000 0000 0000 350c 252d 141c ac2b
00000160: d61a ae30 efcf 1732 3700 0b33 6845 4133
00000170: 94d3 a933 0cc8 3c34 eb51 b634 1bd6 da34
00000180: a4c1 1335 020d 5335 f807 9835 59a1 eb35
00000190: 784d ea35 0713 e235 6f7c a135 bc3d 3035
000001a0: e6d0 d834 f824 1534 1cac 4e33 cb80 ca32
000001b0: bb70 e232 e46f 3130 0000 0000 0000 0000
000001c0: 0000 0000 d7c6 9827 f2b8 0e2f a104 cb2e
000001d0: 5bdb 9931 98d4 7b33 e80f 9d33 f157 5934
000001e0: 92ef ca34 dbd4 5635 ccc9 aa35 4ff3 1436
000001f0: b40e 5436 58e2 9936 df6f c236 e9f4 dd36
00000200: 4bb4 d536 c20f bd36 272f 9036 8eed 4536
00000210: fc8b 0836 9595 9735 8ce0 2035 2ff6 8834
00000220: 9ef0 2434 b557 0b32 ce94 5b30 1003 5930
00000230: 0000 0000 0000 0000 4590 532d d32a 4231
00000240: 3f2f 6933 0c31 5934 fb0a bf34 f644 4435
00000250: 212e bd35 e3cf 2036 d591 8436 d60f d936
00000260: e353 1637 3cc8 4f37 df6b 8237 e027 9537
00000270: 39a8 8c37 c60d 7837 a9bb 4237 66ae 0937
00000280: d070 ac36 ef73 4436 5167 cc35 40fa 2135
00000290: ab8f 4e34 7531 eb32 d223 2332 8d7c ec30
000002a0: 0000 0000 9b65 a02c 98e8 8f30 319d dd31
000002b0: 8a27 d433 022b a034 b125 4735 17ea d435
000002c0: da61 5236 143e ac36 1680 0637 f01b 4237
000002d0: 1017 8437 fbed aa37 e926 c737 d214 de37
000002e0: 7ed9 e337 ce44 bb37 d7f2 9437 7dba 5a37
000002f0: 2e07 0a37 cadc 9236 613c 0f36 300c 5635
00000300: 8970 9a34 469f 0733 96a8 2632 b480 8c31
00000310: 0000 0000 9960 0f31 f495 2b31 30b9 5132
00000320: 8581 3334 1d88 2135 c014 bb35 c297 4436
00000330: 81f1 aa36 7d26 0137 3708 3e37 f029 7a37
00000340: 07cb 9437 1642 b237 fcf9 d537 0bce f137
00000350: 74d2 f637 775d d037 6f4b aa37 3529 8337
00000360: e6a7 2f37 8bdf b636 8091 2b36 0a1f 6c35
00000370: 27e2 6934 879a 2133 3fbf 0e32 7f02 f030
00000380: 26d9 db2e 29ed 6a2f 8d0e 0f31 c623 f132
00000390: 42f2 9634 c216 8e35 b2c4 1236 8403 8436
000003a0: 86f7 d136 c91e 1637 78b8 4637 df7e 6a37
000003b0: e37c 8537 3a47 a637 a4af bd37 6e8d d237
000003c0: d93a e537 41ec c937 e0f6 a337 31b6 8337
000003d0: 6453 3637 dbad c336 66d2 3436 35d4 6535
000003e0: 4b7a 1434 eef4 aa32 48b9 9330 b3d8 e82e
000003f0: 0000 0000 5e8f 012f 3a20 9831 d607 1c33
0.0 0.0 0.0 0.0 0.0 0.0 0.0 0.0
0.0 0.0 0.0 0.0 5.368688e-11 2.5765398e-10 2.499391e-13 4.3392076e-16
0.0 0.0 0.0 0.0 0.0 0.0 0.0 0.0
0.0 0.0 0.0 0.0 0.0 0.0 0.0 0.0
0.0 0.0 1.1188544e-14 2.6261061e-12 1.3649872e-10 3.7826248e-10 1.2463015e-10 3.061086e-10
6.1322436e-09 9.419219e-10 5.6191496e-09 1.1762834e-08 3.2830854e-08 8.090755e-09 4.61714e-10 5.97221e-09
3.4495968e-09 7.333343e-11 2.9893644e-13 0.0 0.0 0.0 0.0 0.0
0.0 0.0 1.8017936e-14 0.0 2.1725906e-11 1.784856e-14 4.1092067e-11 7.0700756e-10
5.243373e-09 3.6004256e-08 7.284962e-08 5.8479753e-08 1.12783184e-07 1.8338743e-07 1.3413883e-07 3.0423243e-07
2.929218e-07 2.969396e-07 3.149803e-07 5.254858e-08 7.517675e-09 4.5065636e-09 1.3642802e-09 6.099211e-10
1.16120794e-10 7.1138305e-13 0.0 0.0 0.0 0.0 9.381875e-12 1.2229128e-12
1.2667793e-09 8.836635e-09 3.2363655e-08 4.499944e-08 7.9081616e-08 1.7581641e-07 3.3959745e-07 4.0761446e-07
5.504355e-07 7.8622554e-07 1.1327202e-06 1.7555823e-06 1.7456905e-06 1.684385e-06 1.203165e-06 6.5654945e-07
4.038513e-07 1.3890156e-07 4.8119645e-08 2.3574463e-08 2.6361127e-08 6.455123e-10 0.0 0.0
0.0 4.2404058e-15 1.298053e-10 9.2321935e-11 4.477824e-09 5.8633844e-08 7.3137755e-08 2.0241693e-07
3.7799742e-07 8.003096e-07 1.2724718e-06 2.2195343e-06 3.159902e-06 4.586105e-06 5.794674e-06 6.6148245e-06
6.3688835e-06 5.6344734e-06 4.2970237e-06 2.9493563e-06 2.034706e-06 1.1293911e-06 5.9931403e-07 2.5511096e-07
1.5361226e-07 8.110807e-09 7.98832e-10 7.894849e-10 0.0 0.0 1.2025996e-11 2.8255058e-09
5.429251e-08 2.0227543e-07 3.5584512e-07 7.311604e-07 1.4095023e-06 2.3962864e-06 3.9508836e-06 6.4689475e-06
8.960228e-06 1.2384782e-05 1.5547439e-05 1.7780752e-05 1.6767635e-05 1.4785159e-05 1.1606994e-05 8.206442e-06
5.1391326e-06 2.9273758e-06 1.5229253e-06 6.0341335e-07 1.9237511e-07 2.7380091e-08 9.495993e-09 1.7206659e-09
0.0 4.558754e-12 1.0470727e-09 6.449817e-09 9.8792114e-08 2.9833615e-07 7.4188125e-07 1.586336e-06
3.1349396e-06 5.1332263e-06 8.016845e-06 1.1569806e-05 1.5746366e-05 2.0376398e-05 2.3740768e-05 2.6474157e-05
2.7161786e-05 2.2324177e-05 1.7756056e-05 1.3037233e-05 8.227113e-06 4.3768423e-06 2.1343806e-06 7.973895e-07
2.8766615e-07 3.1576995e-08 9.700804e-09 4.089168e-09 0.0 2.0864148e-09 2.4969014e-09 1.2207508e-08
1.6717793e-07 6.0175245e-07 1.3938625e-06 2.929461e-06 5.0945096e-06 7.69796e-06 1.1326795e-05 1.49109255e-05
1.7737517e-05 2.1250027e-05 2.5507987e-05 2.8825385e-05 2.9423485e-05 2.4839055e-05 2.0300706e-05 1.5635605e-05
1.0469905e-05 5.4500465e-06 2.5565678e-06 8.796202e-07 2.178209e-07 3.7626275e-08 8.308972e-09 1.7463008e-09
9.99754e-11 2.1366432e-10 2.081751e-09 2.807236e-08 2.8115943e-07 1.0586448e-06 2.1870187e-06 3.934316e-06
6.257501e-06 8.947864e-06 1.184467e-05 1.3977026e-05 1.591299e-05 1.982191e-05 2.2612345e-05 2.509981e-05
2.732633e-05 2.4071081e-05 1.9546074e-05 1.5701256e-05 1.0867461e-05 5.8316923e-06 2.6944558e-06 8.561795e-07
1.3828064e-07 1.9901986e-08 1.0748318e-09 1.0588632e-10 0.0 1.1783416e-10 4.427446e-09 3.6328707e-08

exp_avg f4 [50]
00000000: f753 94b9 9e07 f139 caa6 533a 59e9 5b3a
00000010: c436 af39 856b eeba 8090 d5b8 d4a3 073b
00000020: 00f8 2135 68f7 07bb 00ae e53a 55d7 6d3a
00000030: 3ccb 9038 e50d 1602 9107 153a e057 113a
00000040: 1e8d f1b9 7ef0 01ba fd42 b43a 802a 0ab7
00000050: e0d6 d63a 2cd0 19ba ac7f 1839 06c4 1fba
00000060: 31f4 9aba 9410 9db9 5d8f 9dba 44a4 3cb7
00000070: 9c53 50b9 96ca 39ba fe2a 53ba 1771 b13a
00000080: b435 26ba 4296 d43a 8fc4 1802 4716 33ba
00000090: 21f1 603a 53ed 0fba 7aa3 2aba 3c9e e339
000000a0: 2832 1102 bb51 53ba 71a5 b3ba c96d b23a
000000b0: 283a 153a 1af3 6aba 8ee5 57b9 c1a1 9bba
000000c0: ba9b 4fba 5780 1fbb
-0.00028291318 0.00045972777 0.0008073865 0.00083889585 0.00033419405 -0.0018190002 -0.00010183547 0.0020697014
6.033806e-07 -0.002074683 0.001752317 0.00090729195 6.9043104e-05 1.1024247e-37 0.00056850264 0.00055444054
-0.00046072243 -0.00049567956 0.0013752874 -8.235336e-06 0.0016390942 -0.0005867507 0.00014543411 -0.00060945784
-0.0011822042 -0.00029957725 -0.0012020875 -1.1243919e-05 -0.00019867573 -0.00070873776 -0.00080554176 0.0013537732
-0.00063404 0.0016219097 1.1223606e-37 -0.00068316277 0.0008580853 -0.0005490381 -0.0006509345 0.00043414708
1.0667312e-37 -0.000806119 -0.0013705922 0.0013613041 0.0005692565 -0.00089626166 -0.00020589514 -0.0011873768
-0.00079196284 -0.002433797

exp_avg_sq f4 [50]
00000000: 3dcc 6038 2c2f 4238 6ab6 1538 5410 3038
00000010: 396b 4438 27f7 3a38 29e4 0338 e6ed 6338
00000020: 3bbc 6838 402a 3538 5abd f637 1ead 0b38
00000030: 9847 0438 a033 7b30 ca59 cc37 cd88 0338
00000040: 214a 4a38 0192 0938 42a2 0538 4f6d 0f38
00000050: dffc 3038 03e4 3c38 6ce3 2438 968a 1938
00000060: 7302 0538 e256 7538 7f04 4238 78a6 0938
00000070: 7d9d 5438 626d fd37 932c 8138 07e3 ba37
00000080: f22c f637 13fd e737 49eb b532 da78 d937
00000090: fbb9 6438 9fd1 a337 9dbb 1138 7a80 4238
000000a0: 98b7 cd32 4964 8237 32eb 0738 13c7 1b38
000000b0: 0afa 3238 d24d de37 1e6c 0b38 9a1a 4a38
000000c0: 693e 3e38 99c7 8238
5.3595973e-05 4.6297137e-05 3.5694255e-05 4.1976877e-05 4.68299e-05 4.4576034e-05 3.1445325e-05 5.4342578e-05
5.5488414e-05 4.319311e-05 2.9413659e-05 3.330141e-05 3.153793e-05 9.138663e-10 2.4360506e-05 3.136024e-05
4.822959e-05 3.2799322e-05 3.1860785e-05 3.419566e-05 4.2197174e-05 4.5035045e-05 3.931245e-05 3.660711e-05
3.1711952e-05 5.8493468e-05 4.625739e-05 3.281838e-05 5.069141e-05 3.0210886e-05 6.159502e-05 2.2278646e-05
2.9346415e-05 2.7655193e-05 2.1178169e-08 2.5924692e-05 5.4532644e-05 1.9528727e-05 3.4745422e-05 4.6372857e-05
2.394863e-08 1.5543907e-05 3.240555e-05 3.7140282e-05 4.2671374e-05 2.65007e-05 3.3240874e-05 4.8185328e-05
4.5357654e-05 6.236061e-05

exp_avg f4 [10, 50]
00000000: 68c9 b539 5034 b5ba 7092 7ab9 0a68 5aba
00000010: 445d 153a 750e 3e39 0011 e5b8 94ed 45b8
00000020: 0e90 763a b203 cfba 0445 9b3a ac2f 113b
00000030: 5c7c ffba 7a6b 1c02 7cb3 da39 89c6 8e3b
00000040: 5dfc 69ba 7952 9d39 6ac4 84ba a28c 9d3b
00000050: db1b 263a f0ec 2c38 3b9a a339 b43b 23bb
00000060: 0f26 e43a e83e b7b8 de9a 8ab8 08f2 5839
00000070: 3416 f4ba 426a 893a 0236 c2ba 3228 263a
00000080: d679 963a 6d51 cf3a 552b 1602 02a1 9d3a
00000090: f15e 5c3a d803 ce3a b2fd 2e39 24ab 843a
000000a0: 8dc3 1402 c317 203b 7747 5c3b 9715 913a
000000b0: bc7a 213b 3a2e afba 3c5a 3a3b 3473 2db8
000000c0: a666 3fba 19df 6dba a653 76b9 bcf9 a13a
000000d0: c4f1 beb7 db8c 1e3b 8d2f 0aba 4fab f1ba
000000e0: 714d c43a 90e8 173b 1b81 c1bb 1443 263b
000000f0: 13d2 5b3b 3b3d 933a 4483 063b da57 1102
00000100: b8ad 283a 6824 213b ca8e fab9 ac51 50b9
00000110: 08e0 cd3a 61d9 ae3a 9a19 e93a bdb8 4f39
00000120: 80c1 c6b9 32b4 953a baad d638 67ce 1138
00000130: df3b 093b c366 46ba 586a b5b9 a6cc f2b9
00000140: 4a69 493a 782f 4e3a 52e1 613a 621c 8e3a
00000150: bde7 1b82 8f6f 8d3a dece 1e3b 2224 a93a
00000160: a24f 903a b1c7 c03a 8a6e 1b02 7be7 443b
00000170: 3cd1 373b 05ab be3a f4c7 d63a 814f 173a
00000180: 3cd3 4939 cab9 e3b8 fdd2 963a 0501 b03a
00000190: c812 d639 05ec 933a fcb3 4d3a 4501 c3b9
000001a0: c350 dc3b 4eff 513b edbe 80bb 25b7 1ebb
000001b0: ec80 9f39 7be0 ce3b a719 36bb 5471 8639
000001c0: c02a d7b8 e843 1902 b455 8a3b a20d c33a
000001d0: e2e0 acba bb55 313a a21c 8cba d043 883b
000001e0: e0c2 5dbb 251a 193b ac25 033b c40e 6b3b
000001f0: 083b c33b fd59 d33a 1e65 163a 8a29 033b
00000200: b091 f739 c3e6 663b 9437 12bb 8960 c13a
00000210: 14e9 4d3a e75c 483b 417e 1f82 8ee2 e53b
00000220: ec7e 8dbb 80cc 083a 80df 273b 9616 9c3b
00000230: 9eaa 1882 beb3 473b 6f82 2b3a 0a90 2fba
00000240: b0aa 67b9 046f 2a39 c2f5 da3b 0922 183b
00000250: e7a8 973b c475 64b9 5003 2bbb cade e5ba
00000260: 4484 3c3a 5feb bbbb 342c e2ba f9b9 3e3a
00000270: 2d56 2c3b 7192 30bb cb38 2e3b 44d0 2dbc
00000280: b589 02bc c05a b6b9 eec9 1fbc 71b0 1602
00000290: 228b 99ba 0c25 b3bb e91f 863a a462 f33a
000002a0: 450b 94bb 0445 dbbb 3d25 0abc d835 1f3a
000002b0: 9c96 39ba 7fc5 04bc d2d0 89bb b2cc 58ba
000002c0: d053 08bc 767b 6fba bec6 1c3b 5aa0 edbb
000002d0: b482 b13a ff8b 1f3a 8c2c 0fbc 9e48 c4bb
000002e0: 5896 1702 b3a6 ea3a db0b 7bbb 0c47 fc39
000002f0: 85aa 063a 146f a5ba 39fb 1d02 0f38 0fbc
00000300: 4433 8aba b1d1 d3bb fcf2 1ebb c7c7 413a
00000310: 7423 a6bb 601f 73bb e1ee 08bc f5fb 17bb
00000320: 19bc 963a da52 553a 8695 edb9 f0ce 5a3b
00000330: d086 443b 5215 793b 82de 293b 3c7e 593b
00000340: f254 a43b 41c5 3a3b b279 a13b 977a 5aba
00000350: 6e90 01b9 7233 1e82 604f 3e39 25dd 7d3b
00000360: c2c7 8e3b a70d 8c3b ba48 b53a ee55 643b
00000370: e668 ea39 2ad3 7e3b 4021 073b 9af1 7f3a
00000380: d1d7 c33b d78e c33a 52c5 453a 3d0e d3ba
00000390: bceb ab3b fdb0 f03a 56f9 a73a 78fb 093b
000003a0: 7f52 933a 2d6a 913b 9d6e 1202 6a9a ac3b
000003b0: 1692 ff39 fda7 153a 4919 5f3b 9c67 153b
000003c0: 9baf 1702 d8e6 833b f837 d9ba 650c 893b
000003d0: 6fef 9b3b 9574 813b 7fd6 1c3b 63e5 f73a
000003e0: 1a0c 4f3b f093 ee3b 1634 493a d782 39bb
000003f0: 8d6d 033b 0615 983a 5747 163b e910 7e3a
0.0003467307 -0.0013824794 -0.0002389641 -0.0008331543 0.00056977966 0.00018125198 -0.000109227374 -4.7189722e-05
0.0009405621 -0.0015793948 0.001184613 0.0022153659 -0.0019492018 1.1491914e-37 0.00041713926 0.0043571633
-0.00089258497 0.0003000682 -0.0010129337 0.0048080245 0.0006336548 4.122866e-05 0.00031204693 -0.0024907412
0.0017406362 -8.737837e-05 -6.609199e-05 0.00020689529 -0.001862234 0.0010483938 -0.0014817121 0.0006338387
0.0011480402 0.0015817113 1.1032695e-37 0.0012026133 0.00084064814 0.0015717698 0.00016688442 0.0010121805
1.0929443e-37 0.0024428226 0.0033611932 0.0011069056 0.0024639806 -0.0013365217 0.0028435132 -4.1353705e-05
-0.00073013676 -0.00090740767 -0.0002349155 0.0012357752 -2.2762346e-05 0.0024192843 -0.0005271368 -0.0018437895
0.0014976693 0.002317939 -0.005905283 0.0025369572 0.0033541962 0.0011233458 0.0020525018 1.067813e-37
0.00064345775 0.002458835 -0.00047790102 -0.00019866851 0.0015707025 0.001333993 0.0017784119 0.00019809879
-0.00037909672 0.00114215 0.00010236674 3.476292e-05 0.0020940227 -0.0007568413 -0.00034602243 -0.00046310312
0.0007683231 0.000786535 0.0008616644 0.0010842199 -1.1454107e-37 0.0010790693 0.002423219 0.0012904445
0.001101006 0.001470795 1.1419325e-37 0.00300452 0.0028048297 0.0014546817 0.0016386495 0.000577204
0.00019247545 -0.000108588094 0.0011506971 0.0013428038 0.00040831254 0.0011285549 0.0007846949 -0.00037194244
0.0067234947 0.0032043043 -0.00392901 -0.002421805 0.00030422898 0.0063133813 -0.0027786286 0.00025642908
-0.00010259962 1.1260153e-37 0.0042216424 0.0014881382 -0.0013189579 0.0006764789 -0.0010689686 0.0041584745
-0.0033838078 0.002336153 0.0020011468 0.0035866955 0.005957965 0.0016124841 0.00057371135 0.0020013773
0.00047220057 0.003523276 -0.002231096 0.0014753501 0.0007854861 0.0030572952 -1.1717708e-37 0.007015533
-0.004318109 0.0005218461 0.0025615394 0.0047634346 -1.1216161e-37 0.0030472125 0.00065425684 -0.00066971837
-0.00022093463 0.0001625382 0.0066821286 0.0023213646 0.004628289 -0.00021787646 -0.0026094504 -0.001753771
0.000719134 -0.0057348455 -0.0017255605 0.0007275637 0.0026296482 -0.0026942755 0.0026584144 -0.010608736
-0.007967402 -0.0003478136 -0.009752734 1.1070896e-37 -0.0011714438 -0.005467063 0.0010232899 0.0018568826
-0.004517945 -0.006691577 -0.00843173 0.0006073392 -0.00070796325 -0.008103727 -0.0042058015 -0.0008270248
-0.008320764 -0.00091355236 0.002392217 -0.0072517814 0.0013542981 0.00060862297 -0.008738648 -0.005990102
1.1136874e-37 0.0017902463 -0.0038306627 0.0004811812 0.0005137104 -0.0012621605 1.1606636e-37 -0.008741393
-0.0010543843 -0.006464206 -0.0024253717 0.0007392135 -0.0050701443 -0.0037097558 -0.008357734 -0.002319095
0.0011500149 0.0008137651 -0.00045315566 0.0033387505 0.002998758 0.0038007093 0.0025919979 0.0033186814
0.005015009 0.002849892 0.0049278373 -0.00083343073 -0.00012356203 -1.1622771e-37 0.00018149382 0.0038736549
0.004357309 0.0042740884 0.0013830878 0.0034841257 0.00044710113 0.0038883188 0.0020619184 0.00097634795
0.005976655 0.0014919889 0.00075443566 -0.0016102266 0.0052466076 0.0018363293 0.0012815397 0.0021054428
0.0011239796 0.004437706 1.075813e-37 0.005267431 0.00048746233 0.0005708931 0.003404217 0.0022797352
1.1144124e-37 0.0040253215 -0.0016572466 0.0041823857 0.0047587673 0.0039506652 0.002393156 0.0018912967
0.0031592906 0.007280819 0.0007675303 -0.0028306746 0.002005431 0.0011602945 0.0022930705 0.0009691851

exp_avg_sq f4 [10, 50]
00000000: 690d 8538 66aa 8039 a142 733a b490 0539
00000010: 0779 1c3a abad 3f37 12bb d439 45af 2939
00000020: ac3c e739 db40 ac39 0ef1 9339 77dd ba3a
00000030: 8014 a139 ad20 cd2d 4052 0f3b 6e6f 183a
00000040: 6ab4 7e38 fd2f a037 e7c8 3e3a 0658 213a
00000050: c659 3d38 3c0a 9339 0b16 5a39 9cb5 363a
00000060: 4f46 9439 5546 f639 757b da38 6702 333a
00000070: 463c 1b39 8348 6a3a ac85 ce39 1c8d cb39
00000080: 3104 8b38 8aa2 7b3a cce1 7c2f 8899 6939
00000090: 26d6 be38 37c4 c439 bef9 9e39 f9a0 e03a
000000a0: f6a6 8230 be1a 6a39 3652 2b39 a0a2 4239
000000b0: e68a e839 9b37 e138 99df ac3a 6c57 ce39
000000c0: a4d7 c039 e916 2d38 abd2 7639 28a4 5d38
000000d0: 89a3 5638 9132 073a d4d6 d237 39c2 6c39
000000e0: f02e 3439 461c cd39 b99b c53a 8bfc 6539
000000f0: 7f98 8b3a 5b5d a439 af4d 023a f888 f32e
00000100: 78f4 8539 a3d2 483a 4122 9a39 0a8e 8238
00000110: 3344 283a f710 363a 768d 3e3a 8cf2 9738
00000120: 0117 5939 2d37 6439 67a4 a739 406f 6638
00000130: 740b e439 3c5c 8a38 b6b1 4d39 b855 093a
00000140: 1a3c 1139 e6dc a037 2177 173a 4045 ce39
00000150: 81e0 8f31 1bb3 d638 2f08 ab39 145a 8c38
00000160: dcaf ef38 5277 6839 a25a 3d30 a41c f439
00000170: 6b57 4139 7c72 2b3a 2f4a 373a ae7c 0838
00000180: e08d 6a39 0c60 f339 e9a3 cd39 4f2c a838
00000190: 5ea0 e739 42d9 9339 087f 693a 5fe0 d939
000001a0: db36 a039 e7fd b138 19a2 403a 9921 1f3a
000001b0: 0f0e e839 4727 be3a 2137 d03a fb7e 143b
000001c0: 6c1b 8a3a cdc9 c130 6080 df3a 60dd 2e3b
000001d0: 2c3c 1539 d5fa 9738 49ad 703a b5d8 153b
000001e0: 55bf 4f3a 3be1 7739 434d 8a39 5c91 8d3a
000001f0: ee03 503a d9c1 c939 837e 853a efa1 293a
00000200: bd9c 2639 2844 f13a 66e9 4539 2a13 d239
00000210: 4fd4 923a 3812 143b 72e6 1130 fa68 0c3a
00000220: 63f9 ff39 0624 563a c4f4 613a f540 ea3a
00000230: 05f3 4630 46d7 743a 4761 093a dc82 ab3a
00000240: 3f9f d93a 6ebe 8139 6f3b e93a 482c 2a3a
00000250: 4c68 3d3a 2435 8939 d888 f639 0fd2 6539
00000260: 467c eb39 6fa1 3b3a 3dab de39 c337 ae39
00000270: 8d4c c739 c83b 1f3a 37f2 9a3a 10c5 063b
00000280: 8456 f23a 4af1 a03a ea5c f63a ed24 2e2f
00000290: 3b30 0f3b cb86 1a3b aa4f f538 cbac 4139
000002a0: 7c20 dd3a a155 2b3b d99b 023a 2d7f 3d3a
000002b0: b2dc 123a 88a3 013b 613b ce3a 1a49 443a
000002c0: b16a 4e3a d907 a539 3fe1 4d39 2216 203b
000002d0: 3f11 cc39 8120 4739 4fb4 8a3a acd7 2b3b
000002e0: 763e 382e b288 733a 7f3b a539 fd26 8e39
000002f0: b5c3 193a c316 c33a 0b4b aa30 46d4 bc3a
00000300: 20a1 bc39 058f 5d3a 7f6e c23a 3780 db38
00000310: 043c 3c3b 106b 8e3a ef0e 153b f444 d839
00000320: 0bfd d038 f87d 0a3a b77e a239 b6cd 723a
00000330: fb7e 023a 4f71 0f3a 34e0 d339 f695 593a
00000340: db5e 0e3a cd34 d738 1fb5 1c3a 4923 703a
00000350: 99c3 7638 a37b 9830 4f13 a93a 783c b33a
00000360: ca22 a239 7f18 093a 3ac4 033a 89ce 8e3a
00000370: 1c61 e438 b178 d239 5a2b bd39 9bf7 f138
00000380: 3585 413a c8d8 a739 07ef a339 847c f139
00000390: 9565 753a c62d 2539 2db2 5539 6d5e 463a
000003a0: 03fa 9038 55e0 c13a 031e 802f eae1 dc3a
000003b0: dba3 2b38 a523 0a3a b3fc bd3a ea67 343b
000003c0: 1f20 1230 9fa7 893a df4f 093a 2e83 e139
000003d0: 0f33 343a 1768 653a 9a43 1d3a 03f5 403a
000003e0: 0fb8 653a 1135 5539 6870 f138 306f 063a
000003f0: 4ca1 c839 d3f4 4e3a d86c 653a ce86 fd38
6.344432e-05 0.0002454102 0.0009279643 0.00012737775 0.0005968962 1.1424922e-05 0.0004057517 0.00016182389
0.00044104957 0.00032854718 0.00028217625 0.0014256675 0.00030723587 2.3320313e-11 0.0021869093 0.0005814944
6.0726343e-05 1.9095833e-05 0.00072778616 0.0006154779 4.514472e-05 0.0002804565 0.00020798312 0.0006969811
0.00028281144 0.00046973178 0.00010418046 0.0006828666 0.00014804406 0.00089371967 0.00039390975 0.00038824312
6.628817e-05 0.00095991103 2.2999486e-10 0.00022277806 9.099794e-05 0.00037530225 0.0003032218 0.0017137817
9.506198e-10 0.00022325941 0.00016338457 0.00018561864 0.00044353976 0.000107391934 0.0013189196 0.00039356516
0.00036781759 4.126775e-05 0.00023538868 5.284339e-05 5.117388e-05 0.0005157376 2.5133988e-05 0.00022579067
0.00017183623 0.00039121712 0.0015076316 0.00021933221 0.0010650306 0.00031350073 0.0004970682 1.1074691e-10
0.0002554988 0.0007660782 0.0002939869 6.22534e-05 0.0006418854 0.0006945277 0.0007269004 7.245419e-05
0.00020703302 0.00021764329 0.00031975211 5.4939883e-05 0.00043496082 6.597533e-05 0.00019616526 0.00052389083
0.00013850667 1.917635e-05 0.00057779445 0.00039342977 4.187371e-09 0.00010237676 0.0003262176 6.6924986e-05
0.000114291644 0.00022169694 6.8886596e-10 0.00046560646 0.0001843848 0.0006540192 0.000699195 3.2541044e-05
0.00022368832 0.00046420132 0.0003922277 8.0191174e-05 0.00044179236 0.00028199895 0.0008907174 0.00041556635
0.0003055845 8.487311e-05 0.0007348373 0.0006070375 0.00044260963 0.0014507555 0.001588557 0.0022658694
0.0010536737 1.4099953e-09 0.0017051809 0.0026682243 0.00014232163 7.246962e-05 0.0009181095 0.0022864763
0.0007924934 0.0002363966 0.00026378976 0.0010800767 0.0007935156 0.00038482135 0.0010184798 0.00064709684
0.00015889383 0.0018407153 0.00018874332 0.000400686 0.0011202189 0.0022593867 5.3078175e-10 0.0005356219
0.00048823198 0.000816882 0.0008619542 0.0017872142 7.237733e-10 0.00093399396 0.00052406307 0.0013085264
0.0016603245 0.00024746679 0.0017794202 0.0006491584 0.0007225319 0.0002617027 0.00047022733 0.00021917395
0.00044915284 0.00071575394 0.00042470722 0.00033229412 0.00038013273 0.0006074277 0.0011821453 0.0020564236
0.0018488918 0.0012278941 0.0018796001 1.5838326e-10 0.0021848816 0.0023578878 0.00011697349 0.00018470285
0.0016870643 0.0026143568 0.00049823296 0.00072287285 0.0005602344 0.001978131 0.0015734249 0.00074876996
0.00078741746 0.000314771 0.00019634234 0.0024427255 0.0003892276 0.00018990228 0.0010582301 0.002622108
4.1892233e-11 0.00092900835 0.0003151558 0.000271134 0.00058656494 0.0014884103 1.2390456e-09 0.0014406524
0.00035978202 0.00084517925 0.0014833956 0.00010466616 0.0028722296 0.0010865647 0.0022744497 0.00041250105
9.965346e-05 0.0005283053 0.00030993458 0.00092622207 0.0004978028 0.00054719014 0.000404121 0.0008300239
0.00054310047 0.00010261834 0.0005977917 0.00091605313 5.8833135e-05 1.1094595e-09 0.0012899431 0.0013674637
0.00030924968 0.00052297855 0.00050264935 0.0010895293 0.00010889975 0.00040144243 0.0003608119 0.000115378956
0.0007382215 0.00032014237 0.00031267872 0.00046059873 0.0009361145 0.00015752678 0.00020379639 0.0007567171
6.9130234e-05 0.0014791588 2.330439e-10 0.0016851996 4.092218e-05 0.00052695937 0.0014494866 0.0027527758
5.316014e-10 0.0010502225 0.0005238037 0.0004301308 0.00068740634 0.00087511673 0.0005999148 0.00073607283
0.00087630836 0.00020333032 0.00011512713 0.00051282626 0.00038267148 0.0007894758 0.0008751876 0.000120890894

exp_avg f4 [10]
00000000: 4049 9ab6 464e 233a 6cd3 bc39 2ed3 a9ba
00000010: 6f28 0b3b 2f61 0d3a 39fc 323a cb25 32bb
00000020: b421 af3a d6c5 d7ba
-4.598085e-06 0.000622962 0.00036015676 -0.0012956613 0.0021233817 0.00053932046 0.0006827745 -0.002718317
0.0013361485 -0.0016462158

exp_avg_sq f4 [10]
00000000: d4a6 9438 4609 a938 52e2 2639 7932 3f39
00000010: 783c 1339 8742 3739 1a8b a238 74f8 0839
00000020: c8c4 5f39 b1c9 4639
7.088264e-05 8.060275e-05 0.00015915305 0.00018233982 0.00014041539 0.00017477023 7.750672e-05 0.00013062527
0.00021340244 0.00018957887
